experiments/mpsc/models/ppo_model_quadrotor_3D_stab.pt (torch, 519338 bytes, 36 tensors)

actor.logstd f4 [4]
00000000: 79f9 1ebf 6154 32bf 29f8 09bf 56a1 fcbe
-0.62099415 -0.6966 -0.5389429 -0.4934184

actor.pi_net.fcs.0.weight f4 [128, 24]
00000000: 5b7e 263e 703a 98bd 556b 893e b7ed 143e
00000010: 702a ae3c 2a1f 88bd 697c d7be d6c0 943e
00000020: 221d 9dbe f18a ef3d c790 413d c66d b6bc
00000030: 61c0 32be dc38 853d c4c3 b33d 81a6 043d
00000040: 2f73 493d d117 7b3d f958 39be 4aa0 2f3e
00000050: 69f0 8d3d 386e c7bd 9600 40be f950 ee3d
00000060: 14c2 963d 0ba8 00bd 0578 ba3d 6d2b a83d
00000070: 5208 83bd 871c 0bbd 25a9 6bbe a798 88bd
00000080: 4a64 92be e637 debc d7fa 443d 9dd4 643d
00000090: ac5b 443e 3c93 37be bdbf cdbc de82 4b3e
000000a0: 42c7 793d acc6 6bbd 8e3f 3cbe 1389 c23d
000000b0: 42af 1e3e 369c 273e 4dfc 2e3e 16b0 233d
000000c0: 5f2e 193e a150 eabc 359d 1e3e baa3 6a3c
000000d0: f8f0 e83c 73ef eebd ee47 563c 6819 4f3e
000000e0: 50e4 023f 7c39 00be cde1 a2bd 606b 4a3e
000000f0: 6c08 e8bd 546b eebd 96b4 5fbd d51d 87bd
00000100: 72d6 a1bd 39eb 283e 6b64 ba3c d997 be3d
00000110: 970a 1b3e 4872 07be b390 1f3e 026c d1bd
00000120: e165 83bd b3dd c73d 2460 af3e a26b 683e
00000130: 0e6b d63d 90fc b53e 4277 f0be 31d0 32bd
00000140: f612 2ebd 2ed1 d53b a82e 00bd 7de3 e73d
00000150: a8ab 0f3e 3385 16be 4dd8 e6bd 6892 80bd
00000160: 4c89 f6bc 2b47 a2bd a500 02be 11b5 18bd
00000170: 4602 ccbd 7926 b83b 37bb 1abe 3f02 51bd
00000180: 604d 4fbe 6f4f 98bd 160b 783e 8248 313e
00000190: b80b 6dbd 969e 8bbe 3e0c cabe 9dd0 b0be
000001a0: fbc4 393d 711b 81bd cce1 0cbe c830 4d3d
000001b0: 2637 573c 61b0 fabc d78a 97bd 5a27 323e
000001c0: 8fbf 10be 075b 9fbb 8e10 c23d c694 133e
000001d0: 82d8 35be a0ec 02bd 6852 2e3e dfa1 093d
000001e0: cba0 6abd 0032 00be 6c9c eeb9 40cc 39bd
000001f0: bc9e dbbd 1a1d 373e 5ae8 873e 4209 81be
00000200: eca0 e1be 2c20 ad3c f023 e9bd f91d 0abe
00000210: 9479 efbc e0a2 213d ab44 2bbe 8426 4b3e
00000220: 578d 153e 6286 42be bca7 023e 7ddb fabd
00000230: 6a54 2abe f2d2 433e 031b a8bd d3ac 8abd
00000240: ce18 103e fe30 123e 85e2 dd3d 4d9c 69bc
00000250: b637 9e3c 05b6 00be c4b5 8dbe fad3 a33e
00000260: bf2f 23be f6ec 8b3d 878f 91bc 5cbc 54be
00000270: 2576 4fbd cd40 4abe dba7 83bc 6337 cc3d
00000280: 2687 013d 4add ef3d e2f2 1b3d 8d43 b33d
00000290: 7b26 3c3e c5cf f83c f322 0b3d 829f a9bd
000002a0: b3c0 1cbd fd53 843d 07ed 01bd b636 6e3e
000002b0: 547d bc3d 0a03 13bd 7a96 e4be a50b dabe
000002c0: 809e 1ebe 5e0e 20be 1f27 32be e767 2cbd
000002d0: 0481 2dbe 9ebd 2ebe 7f1b babc 63dc 2fbe
000002e0: a9a9 f93b ed6e 0e3d 8fab 1e3d 772c 033e
000002f0: 892f e43d 197b eabd 7dcb 8cbd 8930 993b
00000300: 5e90 d53c 9696 f63b 5226 bcbc 4208 27bd
00000310: cb29 943d c7bd c63d ea8b 44be 7360 86be
00000320: 744f 42bd 8fc0 233d 5a33 cebc 9975 fa3c
00000330: 0564 033e da18 12bb bb50 db3d 986b 123e
00000340: c95f 043e d111 47be 4472 3d3e 5514 5d3d
00000350: f536 4fbe 530d 503d 18ef 0fbe ea79 413e
00000360: d52c 573e e2fc cbbc 7ecf 6bbc 7cc4 413c
00000370: 80c9 85bd aa36 733d 44a7 a5be 8507 063f
00000380: ede6 7c3e 4519 293c 2f0b 6bbd cd8a 9e3d
00000390: 2902 0e3e dea2 4b3e f560 07be 8239 afbd
000003a0: 1466 633c ba11 eb3d c870 2fbe 3402 9cbd
000003b0: 1810 26be f312 403e dca8 8ebd 396f fb3d
000003c0: 793d 70bd a1b0 a4bd 3c60 dd3d 9625 343e
000003d0: 7253 443d 582d 1b3e 54e1 01be cc22 4fbe
000003e0: 198e 5abd a0da d9bd e07d c1bd a8ef 48be
000003f0: 3340 7ebd 0356 52bc 79df a63d 3e49 27be
0.16259138 -0.07433021 0.268397 0.14543806 0.02126047 -0.06646569 -0.42087105 0.29053372
-0.3068629 0.11696423 0.04725721 -0.02226914 -0.17456199 0.06504986 0.08777574 0.032385353
0.049182113 0.06130201 -0.18100347 0.17150989 0.0693062 -0.097378194 -0.18750224 0.11636538
0.07361236 -0.03141026 0.09104923 0.08211408 -0.06398071 -0.033962753 -0.23013742 -0.06669741
-0.2859214 -0.027126264 0.048090782 0.055866826 0.19175595 -0.17927259 -0.025115842 0.1987414
0.060981043 -0.057562515 -0.18383619 0.09498801 0.15496543 0.16368183 0.17088433 0.03996285
0.14959095 -0.0286029 0.15489657 0.014321262 0.028435215 -0.11666765 0.013078673 0.20224535
0.5112963 -0.12521929 -0.07953224 0.19767523 -0.11329731 -0.11641565 -0.05461558 -0.06597487
-0.0790223 0.1649598 0.022752961 0.093063064 0.15140758 -0.13227189 0.15582542 -0.10225679
-0.06415916 0.09759083 0.34253037 0.22697309 0.10469638 0.35544252 -0.46965986 -0.043655578
-0.04249855 0.0065251803 -0.031294495 0.11322687 0.14030325 -0.14699249 -0.11271725 -0.06277925
-0.030094765 -0.079237305 -0.12695558 -0.037282053 -0.09961371 0.0056198207 -0.1511048 -0.051027533
-0.2024436 -0.07437026 0.24222979 0.17312816 -0.057872504 -0.2726943 -0.39462465 -0.3453416
0.04535387 -0.06304062 -0.1375801 0.05009535 0.013135707 -0.030601682 -0.073995285 0.17397824
-0.14135574 -0.004863146 0.09475814 0.14412221 -0.17758372 -0.031963944 0.17023623 0.033601638
-0.05728225 -0.12519073 -0.0004551144 -0.045360804 -0.107236356 0.17882195 0.26544458 -0.25202376
-0.44068086 0.021133505 -0.11383808 -0.13487996 -0.029232778 0.03946197 -0.16725414 0.19838911
0.14604698 -0.18996575 0.12759298 -0.12248895 -0.16633764 0.19123438 -0.08208277 -0.06771245
0.14071962 0.14276502 0.10834221 -0.014258456 0.019313674 -0.12569435 -0.2767774 0.31997663
-0.15936182 0.06832306 -0.017768634 -0.20774978 -0.05064978 -0.19751282 -0.01607125 0.09971502
0.03162303 0.117121294 0.038073428 0.08753119 0.18374054 0.03037251 0.033968877 -0.08282377
-0.03826971 0.06461332 -0.031720188 0.23263058 0.09203592 -0.03589157 -0.44646055 -0.4258701
-0.1549015 -0.1563048 -0.17397736 -0.042091276 -0.16943747 -0.1706452 -0.02271819 -0.17173915
0.007619102 0.034773756 0.03873783 0.1280993 0.11141879 -0.1144926 -0.0687475 0.0046749753
0.026069816 0.0075252755 -0.022967491 -0.04077936 0.07234534 0.09704166 -0.19193998 -0.2624546
-0.047439054 0.03997856 -0.02517097 0.030573653 0.12831123 -0.0022292645 0.107087575 0.14298856
0.12927164 -0.1944039 0.1850062 0.05397447 -0.20235808 0.050793957 -0.14056051 0.18894163
0.21013196 -0.024900857 -0.014392732 0.011826631 -0.06532574 0.059378304 -0.32354176 0.52355224
0.24697466 0.010320966 -0.057383712 0.07741318 0.13868012 0.19886348 -0.1322058 -0.085558906
0.013879318 0.114779904 -0.17132866 -0.07617608 -0.16217077 0.18757229 -0.06965801 0.122770734
-0.058652375 -0.08041502 0.10809371 0.17592463 0.047931142 0.15154016 -0.12683612 -0.20228118
-0.05335817 -0.106374025 -0.09447837 -0.19622672 -0.062072944 -0.01283789 0.08148093 -0.16336533

actor.pi_net.fcs.0.bias f4 [128]
00000000: 277e 70ba 4536 a33b 8123 59bc d334 a0bc
00000010: e73b 003e 082f b53c 5917 dabd 1c2a 0cbe
00000020: 8bc0 42be c395 a53d 1c04 9d3d e02f 2e3e
00000030: 276d 9f3d bd33 063e 1f44 e2bd 96da a73c
00000040: a66e 793d 3d89 3a3e fe63 4dbc a2dd a6bc
00000050: 3e76 7abe 2613 273d 3c54 1dbc 0e6d ec3d
00000060: 9c18 fdbb e06a 94bd 81ca a8bd f008 a1bd
00000070: 49bf bdbd ec31 4b3e 3ca5 983d 51ff d9bd
00000080: e12f 633d 5793 0e3e 8e45 2b3e 5bd1 0d3e
00000090: 37d7 5b3d 726d 43be f209 a5bc fe12 d73a
000000a0: b46b 523d e846 ad3c 2b11 d83c 8fd8 973d
000000b0: 8a6c f8bd 12bb c6bd 72fa e13d 9f27 b8bc
000000c0: e7eb 08be 9e23 4a3e f2b5 503d 8ce5 83bd
000000d0: ea5f b6bd 0790 16bb 760f 2d3e c178 983b
000000e0: 311a 6ebd 5e4f 46bd cdb7 9c3d ebf0 d83c
000000f0: eed4 30be 348a 45bd 4ee5 e73b a724 3d3e
00000100: 0b00 debd 7bcb 743c fa25 3fbd 84ae 443e
00000110: 6a4d 0dbd 973f a03c ffad 7a3d e9ce 1dbe
00000120: 42b8 a9bd 9a5e bc3d 8b86 ca3d 6cf6 77bd
00000130: 8015 f3bd d470 9abd 592d 5a3c 4ac0 853d
00000140: d3e8 b33c 710f 213e 05f1 b83d 5428 523d
00000150: 8184 523b 4d16 fe3d 4fa1 2d3d f354 c33d
00000160: 840a 0dbd 7f6f 773d b614 ebbd 9e95 913d
00000170: 4309 863d 7f53 11be 0b1d f33d ec28 f13d
00000180: ec89 163e d6c9 a1bd 5b2c 163e 0d22 46be
00000190: 6d85 73be 2cd5 01be 9a52 be3c 1617 323e
000001a0: 26b1 cd3d f8a4 473d d273 3b3c d2f6 a93d
000001b0: 838c 173e 6a56 bd3d 010c b93d 5b55 d13c
000001c0: edd6 4bbe cfba 6a3d d52c 3ebd 6092 91bc
000001d0: e844 993d dafb e83b b4ad 31bc 2b0d a73c
000001e0: 3e6b 01be d238 debd abb6 8cbd 7e5b febd
000001f0: 4074 01be 0ce4 f7bd 47c1 c5bd 9225 d5bc
-0.00091740716 0.0049808347 -0.013253094 -0.019556439 0.12522851 0.022117153 -0.106489845 -0.13687938
-0.19018762 0.080852054 0.076667994 0.1701045 0.07784491 0.13105674 -0.11048149 0.020489972
0.06089654 0.18216415 -0.012536047 -0.020369355 -0.24459168 0.040789746 -0.009602603 0.11544238
-0.007723881 -0.07246947 -0.082417496 -0.07863033 -0.092650004 0.19843262 0.07453391 -0.10644401
0.055465583 0.13923393 0.16725752 0.13849394 0.05367204 -0.19084719 -0.020146344 0.0016408858
0.051372245 0.021151975 0.026375374 0.07414352 -0.12130077 -0.097036496 0.11034097 -0.02247983
-0.1337124 0.1974015 0.050954767 -0.06440267 -0.08905013 -0.002297403 0.16900429 0.004653067
-0.058130447 -0.048415534 0.07652245 0.026482066 -0.17268726 -0.048227504 0.007076896 0.18471013
-0.10839852 0.014941092 -0.046667077 0.19207197 -0.034497656 0.019561572 0.06120109 -0.15410961
-0.082870975 0.09197731 0.09888943 -0.06053774 -0.11869335 -0.075410515 0.013316476 0.06530817
0.021961605 0.15728547 0.09030346 0.05130799 0.0032122436 0.12406597 0.042390164 0.09537687
-0.034433857 0.060409065 -0.1147856 0.07108615 0.06544735 -0.14192007 0.11870774 0.11775383
0.1470105 -0.07899825 0.14665358 -0.19348927 -0.23781367 -0.12678975 0.023232747 0.17391619
0.10043554 0.04874131 0.011441188 0.0829903 0.14799695 0.09244998 0.09035493 0.025553396
-0.19906206 0.05730706 -0.046429474 -0.017769992 0.07483846 0.007110101 -0.010844637 0.020392021
-0.12638566 -0.10850681 -0.06870779 -0.124197945 -0.12642002 -0.12104043 -0.09656005 -0.026018891

actor.pi_net.fcs.1.weight f4 [128, 128]
00000000: 5c41 633d 1786 eabd 45e0 3e3d f01c c73a
00000010: aff1 043d fd5c 70bd 96e3 193d 1178 c8bb
00000020: e82a 333d 8a83 803d bb30 31bd 29db 9b3d
00000030: 304d 50bc 3c47 8a3d 71d7 da3c 27ab ce3d
00000040: df53 99ba d08a 9fbc a8fe 6d3d 7e7d d3bd
00000050: 23cf 7fbd eebc 2fbd d0be 913d b1bc 32bd
00000060: 9ef7 8abc d342 21bd 4592 9abd fc68 523d
00000070: cd57 5bbd b252 06bd beea b73c 1095 893d
00000080: a1e0 bd3d a664 cf3c 241e 10bd 121e 04bc
00000090: dccc 02be 3e9b 58bd 594c f7bc 3cde 94bd
000000a0: 0c3f e43c ad74 e33c f5b6 cfbc 3f5c 88bd
000000b0: 3fd5 18bd f2e8 60bc ecc4 43bd f305 8e3d
000000c0: 927f b13d fb34 8cbd 4c57 29bd 0d03 b0bc
000000d0: 0413 a2bd a8f9 933c 855c 27bd fa0c 943c
000000e0: 770a 633d 47fd 04bd 48ae c0bc 2895 893c
000000f0: dd3a c13d 4d01 26bb de5b aebd 7537 b1bc
00000100: aa3f 9bbd 30f2 1d3d 3b2b 4d3c d3b7 493d
00000110: ae06 bf3c f9d7 b33d 9d0d 973c 4839 d43c
00000120: dbc0 63bd 155d a1bd 5817 0dbc d614 6e3d
00000130: 78a1 8c3c 8468 a73c 29af 853d 2c80 15bd
00000140: 84ca cbbd c236 5b3d 3ac1 8dbd 3b6e 32bd
00000150: 65fa 813d a7ca a33d 92f4 cebd 9229 d43c
00000160: 7d01 a93c 8002 f63c 288a 593b ec5c 41bd
00000170: 605b 443d b87b 80bd 4111 eebd 9c60 9cbd
00000180: 1189 c33b cb55 333d e44a f6bc 6270 08bd
00000190: cbfe de3c e659 43bd 6a08 c7bd bfbc 27be
000001a0: 65a5 36bb 85ce 02bd ce22 abba 37b6 8e3c
000001b0: 41fd edbd bd80 45bd d2d0 a7bb 6cd3 06bd
000001c0: 29dd ff3c 7f37 253d 8004 ac3d 65ff 9f3d
000001d0: 37a6 423d 35a0 15bd bd43 343d c810 6fbc
000001e0: c32d 88bc a72f 46bc f0a6 763d 3d22 f03c
000001f0: 2947 2c3d b056 1fbd 45ee 24bc cae6 633d
00000200: 847a 993d 313c 333c 1601 eebd e88d a1bd
00000210: 489e 62bd 8dcd 26bc cda0 99bd 3f96 7e3b
00000220: 3b2f 813d 5083 24bd 9686 25bc 7bb7 ebbc
00000230: 4943 3fbd 27cc a43c 9f76 60bd 6b68 92bd
00000240: ef8b 37bc 32e5 1abd b408 1b3d ef0f cabc
00000250: cfcd 623d e3ad 053d 159d 453d 8224 04bd
00000260: df5b d83a 6aaa bd3d 194e a13b 0f2b 60bd
00000270: 30fc 18bd f2d6 ce3d 22e6 bc3d fbc2 4cbd
00000280: 2576 e13c 2d9a 0f3d 92af ccbd 4876 a4bb
00000290: 251c 323e 864f fe3d 5144 0c3d 4de6 3b3c
000002a0: c1fc 113d 7fd0 503d ea42 323e a555 03bd
000002b0: e0d6 d83d 19ff 1ebe 5ffc b63d b114 82bd
000002c0: 29cb 253d 71f9 04bb 3798 013e 042d e6bd
000002d0: 9a54 eb3b d548 82bd 2812 e63d 6083 063b
000002e0: 50b4 64bb 142a a43c 1bb5 1ebe 065c f83b
000002f0: be31 093d e13e 23bb cce3 ca3b 099e 393c
00000300: e092 143e 583d 373d c0c1 69bc 87c5 bebd
00000310: cea6 f53c d5fd f43d 3e72 d7bd 232d 7dbc
00000320: d79a a3bd 3d86 02bd d886 18be dcba 0b3d
00000330: 21d1 2a3d 295f e63d 4c2c cb3c 055f 3fbd
00000340: 51a0 ebbc dfdc 17bd f227 24bd b3ce d33c
00000350: b458 84bd a838 053d 9333 29bd 5efd c8bc
00000360: d419 89bd 42f9 003d c72f 2d3d ef38 0fbd
00000370: 9d7b ddbd be72 14bc 4f67 adbd 34a1 2b3d
00000380: 538d 40bd de04 c5bd 70a9 cebd ee49 e2bd
00000390: cf5c 22bc 7b9a 853b 67a5 293d 8be9 333d
000003a0: 2bb3 33bd 53fd ca3c 8475 843d a9f7 21bd
000003b0: c02f 1a3d 0bfa e0bc 10dc 4b3d 63e7 0dbc
000003c0: e1b8 23bc ca3f 313a 280a 33bd 0235 c9bd
000003d0: 4adc 24bd a265 30bd bdeb a9bd b813 603c
000003e0: 9d9c 663d 9780 9c3c b132 7ebd ca04 06bd
000003f0: 4d4e 97ba 8647 bebc cc19 9a3c 2b18 fcbd
0.055482253 -0.11451357 0.0466006 0.0015191119 0.03245705 -0.05868243 0.03757056 -0.0061178287
0.04374209 0.06275089 -0.043259364 0.07610161 -0.012713715 0.06751868 0.026714059 0.100912385
-0.0011697969 -0.01947537 0.058104187 -0.1032667 -0.0624534 -0.042904787 0.07116473 -0.04363698
-0.016963776 -0.03937037 -0.0754743 0.051369652 -0.05355053 -0.03279371 0.022450801 0.067178845
0.0927136 0.025316548 -0.035184994 -0.00806381 -0.1277346 -0.052882425 -0.030187773 -0.0726895
0.027862094 0.027765596 -0.025355795 -0.066582195 -0.037312742 -0.0137274135 -0.04779522 0.069347285
0.0866691 -0.06846043 -0.04134302 -0.02148583 -0.07913783 0.018063381 -0.040859718 0.018072594
0.055429902 -0.032468107 -0.023520604 0.016794756 0.094350554 -0.0025330365 -0.08513616 -0.02163289
-0.07580502 0.038561046 0.012522514 0.049247574 0.023318615 0.08781428 0.018439109 0.02590622
-0.055603843 -0.07879082 -0.008611523 0.05812534 0.017166838 0.02043558 0.0652755 -0.036499187
-0.09950736 0.053519018 -0.06921621 -0.043562155 0.06346587 0.07997637 -0.10105242 0.025898729
0.020630592 0.030030489 0.003319392 -0.047207758 0.047938704 -0.062735975 -0.11624385 -0.07635614
0.0059672673 0.04378299 -0.030065008 -0.0333103 0.027221104 -0.047693156 -0.09718402 -0.16380595
-0.002786958 -0.031935234 -0.0013056637 0.017420871 -0.1162057 -0.048218478 -0.005121329 -0.03291647
0.031233387 0.04033613 0.08399296 0.078123845 0.047521796 -0.03652974 0.044009913 -0.014591403
-0.016623383 -0.012096322 0.060217798 0.029313201 0.04206005 -0.03890103 -0.0100665735 0.05564002
0.07494071 0.010939644 -0.11621301 -0.078883946 -0.05532673 -0.010180843 -0.075013734 0.0038846878
0.063078366 -0.04016429 -0.010102889 -0.028774014 -0.046695028 0.020116879 -0.054800626 -0.071488224
-0.011202796 -0.037816234 0.037850097 -0.0246658 0.055372056 0.032636534 0.04824551 -0.03226138
0.0016506872 0.092610195 0.00492264 -0.054728564 -0.03734988 0.10099591 0.09223582 -0.049990635
0.027522156 0.035059143 -0.09994425 -0.005018983 0.17393549 0.12417512 0.03424484 0.011468482
0.035641436 0.050980087 0.17408338 -0.0320641 0.10587859 -0.15527 0.08934855 -0.06351603
0.04047695 -0.002029028 0.12655722 -0.11239055 0.007181716 -0.06361548 0.11233932 0.0020525083
-0.0034897514 0.020039596 -0.15498774 0.0075793294 0.033494703 -0.0024909305 0.0061917063 0.011329182
0.14509153 0.044736236 -0.014267385 -0.09315019 0.029986765 0.11962477 -0.10519837 -0.015452656
-0.07988518 -0.0318663 -0.14895189 0.03411375 0.041703347 0.11248619 0.024801396 -0.046721477
-0.028762968 -0.037075873 -0.040077157 0.025855398 -0.06462231 0.032524735 -0.04130895 -0.024534877
-0.066943794 0.03148771 0.042281892 -0.034966405 -0.10814593 -0.00906056 -0.0846697 0.041901782
-0.047009777 -0.09620069 -0.100909114 -0.11049257 -0.009909823 0.0040772534 0.041417506 0.043923896
-0.04387204 0.024778998 0.06467727 -0.039542828 0.037643194 -0.02746298 0.049770415 -0.008661124
-0.009992809 0.00067615195 -0.043710858 -0.098245636 -0.040249147 -0.043065675 -0.08296917 0.013676576
0.0563017 0.019104285 -0.06206006 -0.03271941 -0.0011543721 -0.023227464 0.018811129 -0.12309297

actor.pi_net.fcs.1.bias f4 [128]
00000000: e3d6 90bd 8cc0 49bd 92cb 393d d916 c33d
00000010: 6d88 e0bc 52c7 4dbb 5ade 27bc 876e 8cbd
00000020: a95c 45bd d22a 68bd 760f 943c 9054 a0bc
00000030: 133b 8b3d e30c 993c de48 e13c b825 023d
00000040: 0efd a43c 9841 7abd d919 2ebc 7845 613d
00000050: 5e46 bfbc e569 883d 5e9d 9b3d 5e44 49bd
00000060: 2eb9 1dbd c4df a0bc ea4e 613c bbb6 55bd
00000070: 52f5 acb9 f504 823c c606 d3bc 9f1a 123d
00000080: cfc1 6fbd 9c4e 763c 4304 c1bc c478 96ba
00000090: 1dca b2bb 7c1a 02bd dd9f c93a ba99 09bd
000000a0: 1c83 14bd 5f18 84bc 4264 e8bc e33c cdbc
000000b0: e324 6bbd 8fd3 a3bd d11d a03d 48c6 483b
000000c0: 5bef 3fbd 6516 913d 8ba4 21bd 192d f6bb
000000d0: 8a72 43bc 5e5c 4cbd 5f6a a6bb 8717 8a3c
000000e0: bb78 f2bc 44f1 47bc f80b a53c 7a7b 03bd
000000f0: a5d5 10bd 4e5e 073d bf45 7a3d e606 d13b
00000100: b5e3 0dbd 5c8c f43c 6e83 383d 0a06 42bd
00000110: a80c e43c 3bf2 cabb 5875 873c e898 c4ba
00000120: 54af 0e3d ecd5 1f3d 8c8b 34bd b325 1dbd
00000130: eb9e bcbd d106 8ebd 234a 1d3d 062b 2bbc
00000140: 574f 7cbc 1291 033d 681e c23c cdb1 6f3d
00000150: 27ef 153d 24cf 17bd 7ff7 99bd 12ac 333d
00000160: 0460 8ebd 86e3 a5bb fbe1 2e3d 0ef9 cebc
00000170: de87 723d 191f c53d e6bc bebb 7136 82bc
00000180: 54ee 523d 0336 f0bb 314b 313d 935e 963d
00000190: a310 fabc 69d0 ebbc 5933 583c 717a 703d
000001a0: 715b e3bc e9a5 363d fc92 343d dd7f db3c
000001b0: 05f5 5f3d eb0e d5bc d3e1 0c3d 60e7 603d
000001c0: 471b 2fbd dfc0 2dbd 6620 5e3b ee7f 46bd
000001d0: 1199 983d 4e66 98bc 5c2b 0cbd cf6c ce3b
000001e0: 8c61 aabd e3ba 603d edb1 5cbd 77ec cd3c
000001f0: 259c e43c 76bf 3b3c 8552 d03c 1c86 1e3d
-0.070722364 -0.049255893 0.045360155 0.09525842 -0.027408803 -0.0031399322 -0.010245884 -0.06857019
-0.04818407 -0.05668146 0.018073779 -0.019571573 0.06798377 0.018682903 0.027500566 0.031774253
0.020140197 -0.06109771 -0.01062628 0.05499789 -0.023348983 0.06660823 0.07598375 -0.049137466
-0.03850668 -0.01963795 0.013751725 -0.05217622 -0.00032989174 0.015871504 -0.025760066 0.03566992
-0.05853444 0.01503339 -0.023561602 -0.0011480083 -0.0054562227 -0.03176354 0.0015382726 -0.03359387
-0.03625785 -0.016124902 -0.02836812 -0.025053447 -0.057408225 -0.07999336 0.07818187 0.0030635763
-0.046859127 0.070843495 -0.03946356 -0.0075127003 -0.011929164 -0.049892776 -0.0050785984 0.016856922
-0.029598584 -0.012203518 0.020147309 -0.03210018 -0.035359997 0.03304892 0.06110167 0.006378996
-0.034640986 0.029852085 0.045047216 -0.04736904 0.027838066 -0.006193427 0.016535446 -0.0014999183
0.034835175 0.03902237 -0.044078395 -0.03836603 -0.09209999 -0.06934894 0.03840078 -0.010447269
-0.0153997755 0.03212077 0.02369614 0.058519173 0.036605027 -0.03706278 -0.07517909 0.04386527
-0.06951907 -0.0050625233 0.04269598 -0.025265243 0.059211604 0.09625072 -0.0058208583 -0.0158951
0.05149682 -0.0073306574 0.0432846 0.07342257 -0.030525511 -0.028785901 0.013195836 0.05871052
-0.027753564 0.044591818 0.044085488 0.026794368 0.05467703 -0.02600809 0.03439505 0.054908156
-0.042750623 -0.042420264 0.0033893823 -0.048461847 0.0745107 -0.01860347 -0.03422104 0.006299592
-0.08319387 0.05486573 -0.05388062 0.02513717 0.027906487 0.011459222 0.025429973 0.038702115

actor.pi_net.fcs.2.weight f4 [4, 128]
00000000: d111 cc3c 77e0 a4bd 414f 4d3c c680 353d
00000010: fb06 2d3d 346b 513d a6aa 563d 23d2 05be
00000020: 69ce 2dbd 883e 8abd 1501 c03c 4c07 3b3d
00000030: 9710 dabb fecf c23d 4cc5 d13c 5d31 9a3a
00000040: 6c0a 02bd ab05 2339 f909 a1bb 2ec3 313d
00000050: 2cef df3b 1925 0e3b 55d1 c93d 2c4a 65bd
00000060: 9718 133d fb24 5c3d 2784 8cbd 1055 393d
00000070: 7424 aabd cac9 f5bb 2a36 19bd 6fa1 af3c
00000080: c520 afbd a3ec 66bd 2375 87bd 6a1e d1bc
00000090: c35e 5fbd bfee 29bc 885f 833d bd10 9e39
000000a0: 3e15 6ebc 99a6 0a3b ee83 4c3c 6cee 3cbd
000000b0: b821 17bd 619d efbd 095e 573d 0f8f 80ba
000000c0: 63f9 a0bd 88f7 f23b bbba a03b 88c0 3bba
000000d0: 016e 64ba 6c79 33bd 1305 003d a922 14bc
000000e0: 46c1 a0bd 8c85 c23c c2c0 07be 3db2 2fbd
000000f0: adaa b7bc 1eed 8dbd e6fd 943d bdef ee3c
00000100: f62f 263e 0f29 0abe f9fc 373d 8a7b 85bd
00000110: 7e49 043d d0e8 8a3c aece 0abc a5c6 f7bd
00000120: 8ef6 ce3c b97a 72bd 3be0 b83b 42a2 c33b
00000130: 9d34 36bd 87f8 23bc b6ed a9bd e7d0 0ebd
00000140: 47c4 163b 453e a73d 2fca 213d f42e d93c
00000150: 1446 1e3c 22f4 ebbb 6446 9ebd f336 443d
00000160: 3115 23bc a9d5 81bb 1459 693d 4192 2a3d
00000170: 6f77 2e3d f3b5 f2bd 3efa 293d 88f2 bbbb
00000180: b166 623d 101b bb3d 89a3 303d 7ec5 093e
00000190: 2c8d 94bc 291e a23b d0c3 afbd df31 b13c
000001a0: 9d37 00bc eee0 df3c d874 cbbd dff8 473c
000001b0: 2677 f33c 44d6 e0bc 8096 123d 627f 3dbd
000001c0: 3a47 913c 9841 4ebd 88c5 3fbd 8081 63bd
000001d0: e7e4 b1bb 3610 ca3c cc93 5fbd 3927 be3d
000001e0: 94e0 fa3c b596 9dbd e58c cf3c 324d b0bb
000001f0: 80d8 f3bc 7417 bbbb b0f8 11bc c322 97bd
00000200: 27df 0ebd d207 9fbc 2ffa 62bc d150 7b3d
00000210: 95bc 5e3d 8c9a 7aba b60c e93d 4a33 1bbe
00000220: 8c39 9fbc ec2e a2bd b6ba 0dbc 3f3e 853b
00000230: ad74 4fbd 224a 773d 46fe 8d3a 6e0b 11bc
00000240: fcac 4fbd db7b 193b efcd e9bc 8030 223d
00000250: 51b9 a63c aeaf 763c 0fee 7b3d 3a0c a0bd
00000260: 0e33 cbbc 06d7 53bd e89d 903d 67e2 a03d
00000270: 4a07 e53c 2c8b d2bb 032e e8bc 6d3e 963d
00000280: 14fa 9abd 0b78 a7bd d2ec 943c 34e6 41bd
00000290: 83ae 593d db42 b13d 1503 6cbd ae08 0f3d
000002a0: ae16 49bd 1231 ea3a fee0 0b3c 14d9 17bd
000002b0: 8313 0dbd a50d 223e e369 ab3d 3c7f 55bc
000002c0: 3ed4 46bd 93e2 7abd 8e43 1cbb 23dd 243c
000002d0: 968f 903b 0775 e4bc 4afd b13c 50ad 103b
000002e0: de73 0d3c 6a94 893a 8165 073c e627 95bd
000002f0: 0842 20bd 73bb a3bd db2a 873c 9d6c 13bb
00000300: a8f0 5ebc c94c 4f3d e353 093d b83d 25bd
00000310: 544c 303d 3005 b5bd d9cb 33bb 6439 c1bc
00000320: 232b 8cbc 2f2e ae3d 4f8f 90bc 59d9 c93d
00000330: 19bb 05bd 4c1d 65bd 4540 923d 9a12 67bd
00000340: 85bd 8d39 f025 babb b3ee a4bd 845e 443c
00000350: e893 2d3a a709 25bd 6e57 e2bd 9ea5 5a3c
00000360: 2158 9f3d ed75 993d b075 17bd 12f3 983c
00000370: d865 61bd ec56 f1bc 1457 603d d4cb d73b
00000380: 0bca 883d 8725 da3d 33d3 9bbd 0313 9cbd
00000390: ec0f c73b a153 f33b dbff 373d 9a81 c2bd
000003a0: 7fde a9bc 27b8 2a3c 0441 b43c b952 28bb
000003b0: c545 23ba 4f54 283d cb9e 1ebc c3c6 323d
000003c0: bd01 6d3d 69c2 f7bb 2355 60bd 6955 8cbc
000003d0: 6db2 923c 76fd d83a f35a 10bd 0821 ef3c
000003e0: 52c5 13be 6f06 943d af9d fbb9 119f 1cbd
000003f0: 19ec b53d c05e d5ba 8851 80bc 5214 693d
0.02491084 -0.08050626 0.012531103 0.04431226 0.042242985 0.051127627 0.052408837 -0.13068442
-0.042433176 -0.06750208 0.023438016 0.045661256 -0.0066548097 0.095123276 0.025606774 0.0011763979
-0.03174822 0.00015547003 -0.004914519 0.04339903 0.0068339314 0.0021689592 0.0985438 -0.05597894
0.035912123 0.053746205 -0.068611436 0.045247138 -0.08307734 -0.007500862 -0.03740517 0.021439282
-0.08551172 -0.056378018 -0.06614139 -0.025527198 -0.05453373 -0.010371863 0.064147055 0.0003014858
-0.014531432 0.002115643 0.012482626 -0.046125814 -0.03689739 -0.116999395 0.052579913 -0.000980826
-0.07860067 0.007414762 0.0049050725 -0.0007162173 -0.00087139016 -0.04381697 0.03125484 -0.009041467
-0.07849364 0.02374532 -0.13257125 -0.04289459 -0.022420252 -0.06929992 0.0727499 0.02916705
0.16229233 -0.13492225 0.044918988 -0.06517704 0.03229665 0.016956717 -0.008472128 -0.12098435
0.02526405 -0.05919907 0.0056419647 0.0059702704 -0.04448377 -0.010007984 -0.08297293 -0.034867194
0.0023005174 0.08166174 0.039499458 0.026511647 0.009660263 -0.0072007338 -0.0772827 0.047903966
-0.009953783 -0.003962238 0.056969717 0.041643385 0.04259437 -0.1185111 0.041498415 -0.005735699
0.055273715 0.09136021 0.04312471 0.13454244 -0.018133722 0.004947443 -0.0858227 0.021630226
-0.007825759 0.027328935 -0.099343956 0.012205332 0.0297199 -0.02744592 0.03578806 -0.04626406
0.017734159 -0.050355524 -0.04681924 -0.055543423 -0.0054288986 0.024665933 -0.05458431 0.09284825
0.030624665 -0.07694761 0.025335738 -0.005380296 -0.029766321 -0.005709583 -0.008909389 -0.07379677
-0.034880783 -0.019412909 -0.013853594 0.06135637 0.054379065 -0.00095597724 0.113793775 -0.15156284
-0.01943662 -0.07919106 -0.008650472 0.004066258 -0.05064838 0.060373433 0.0010833226 -0.008852823
-0.05070208 0.002341977 -0.02854058 0.039597034 0.020352038 0.015056534 0.061506327 -0.07814832
-0.024804618 -0.051718734 0.07061368 0.07855683 0.027957577 -0.006425282 -0.028342253 0.073361255
-0.0756723 -0.08177193 0.018179331 -0.04733868 0.053144943 0.0865533 -0.057620127 0.034920387
-0.049093895 0.0017867407 0.008537529 -0.037072256 -0.034442436 0.15825517 0.08369806 -0.013030823
-0.048542254 -0.061251234 -0.0023843977 0.010062489 0.004411648 -0.027887834 0.021727223 0.0022075959
0.008633582 0.0010496501 0.0082639465 -0.07283001 -0.039125472 -0.079947375 0.016499927 -0.0022495158
-0.013607182 0.050610337 0.033527266 -0.040342063 0.043041542 -0.0883888 -0.0027434735 -0.023586936
-0.017110413 0.085049026 -0.01764646 0.09855909 -0.032649133 -0.055936143 0.07141165 -0.056414224
0.0002703482 -0.005680792 -0.08053341 0.011985425 0.0006621466 -0.04029241 -0.11051832 0.01334515
0.07780481 0.07493196 -0.03697747 0.018670592 -0.055028766 -0.029460393 0.054770544 0.0065855775
0.06679162 0.10651689 -0.076086424 -0.07620814 0.006074896 0.007425741 0.044921737 -0.09497376
-0.020735977 0.010419882 0.022003658 -0.0025684072 -0.0006228353 0.041096028 -0.009681414 0.043646585
0.057862986 -0.0075610173 -0.054768693 -0.01713057 0.017907346 0.001655503 -0.035242986 0.029190555
-0.1443074 0.072277896 -0.00047991934 -0.038237635 0.08882923 -0.0016278848 -0.015663877 0.056904145

actor.pi_net.fcs.2.bias f4 [4]
00000000: 5eac 113d 1039 7c3d d235 3a3d dfad 01bd
0.035564773 0.061577857 0.045461483 -0.031659957

critic.v_net.fcs.0.weight f4 [128, 24]
00000000: 5e6b 48bf dadf 82be 29f5 28bf 1989 b0bd
00000010: ee0e d8bd 1c43 e7bd 2190 273e 068a be3e
00000020: e5f3 c13d 7edc 6c3d 16af 52bd 73b6 323e
00000030: d189 d8bd 3743 50bd b1d2 3c3d 548c b9bd
00000040: 5e51 ccbe 508f a73c 88ca f53d cd6b 49bc
00000050: 7238 3e3d 13d3 973d 65c7 8cbd 35c6 91bd
00000060: 119c b0be 915b cfbe 7cd8 acbe bd81 4bbe
00000070: d5a0 0b3f ec57 8b3e 01e8 073e 26c8 07bf
00000080: 6cfa 1dbf 21ec b83d b7fc 69bd 01f7 19be
00000090: 5ae8 c6bd 3857 823d 5ca1 bbbd 12ce 2bbe
000000a0: c150 cfbe ab69 af3d 391b 093d adbc 4fbe
000000b0: a318 a8b8 78b3 3e3e 0475 e33c 5709 3bbe
000000c0: 550a 1a3e c436 293e ceed 473f 72b4 0ebf
000000d0: c3b6 633e e5e6 e93b 4d3c 12bf 1d47 63be
000000e0: db83 853d 514d 473e f422 583d 3045 b3be
000000f0: 32e5 c8bd 17bc 313c 41b8 ebbc 4df0 463e
00000100: 346d bcbd ca7a d33d 4725 243e c1bd 093e
00000110: 6899 42be 9858 293e 33b4 e6bd 2f5f f3bd
00000120: e39b 6e3e 4300 ea3d 4daa 0abf 7904 153c
00000130: 7327 fe3e 421c 78be 8b26 003f 9c6d f8bd
00000140: e4e4 85bf 1e54 2e3d 8a59 1abe f5fc a53d
00000150: 6815 403e 6495 31be d6e4 17ba 6756 613d
00000160: 4eed 60be d7f1 903c 7fdb 073e 68fa e03d
00000170: 5550 1fbe 3284 49bc 5ad5 68bd 9844 aa3d
00000180: 05a4 abbe 0e93 14be 3b28 10bf d3a0 a6be
00000190: bbc6 bbbe 087d 3cbe 8ac0 e73e 93aa 88be
000001a0: 46d5 593e a587 1c3e 999a bdbc 0026 0fbe
000001b0: d511 253e db86 94bd 39ac cbbd d48f bc3d
000001c0: 9921 f03b 5933 213e 70f5 28be c78e 993d
000001d0: 67ef 553d 10e6 31bd 0f6d 4cbe be08 03be
000001e0: b69e 7d3f 5019 113f 00a3 a6bc 095f 8abd
000001f0: 6b51 58bf 90d0 883e 9fb6 993e 866e f6be
00000200: ae63 a33e dc33 4fbd 9541 bdbb 6bc8 e6bd
00000210: 78ef 143e d65f 963d 5867 873c 3dcc 05bc
00000220: bf26 81be c61e c33d 2ea9 503e de01 993d
00000230: 09ed eabd b2c9 78bc c15d 4e3d 383b 1c3d
00000240: 9447 c6be 2a5d 26be d27b 1f3f 754b b23d
00000250: bb60 c33e 426e 80be 1405 d2be 5939 4fbf
00000260: 4eac fd3d 151c 603c 6c74 df3d 06cf 883d
00000270: 4f27 dfbc 2f54 483e b979 1fbd 14ff c43d
00000280: 9616 b33c 1eae 1c3e 8b26 da3d 358f e4bd
00000290: 3f0b 70bd 9a13 1ebe bba6 0cbe d471 01be
000002a0: 4842 373e 1d2f 3dbe 189c fc3e ff1b b53e
000002b0: 5c6f 80be af92 193f e4be 42bf e91d c5be
000002c0: f019 47bd 6b6b be3c 3c9d c23d f24b aa3c
000002d0: ac5b 2a3e 1b4e 15be 4053 0b3d 2bca 3c3c
000002e0: 3d15 3c3e 7f1f aebd 7995 da3d ee6c 3e3b
000002f0: ec6b 27bd bad7 07be 33ca 443e 8faa 69bd
00000300: 821d dabe 63a6 1ebe f076 463f dae1 de3d
00000310: b05c 5c3f 94c6 27be 974f 9cbe 5948 74be
00000320: 0339 903d ed9e c5bc 1506 053e 4231 29bd
00000330: c045 55bd 80d6 7a3d 8d37 3f3d 1156 cd3d
00000340: 8716 2bbd 153f 7c3b 1dcd 393d fc20 b03d
00000350: bda1 383e 2443 bc3c 9cf7 303e 8f12 e1bd
00000360: b0c7 36bd c553 a83e a4e0 343e 80e2 4bbe
00000370: 9d7b 3d3e e973 66bd 8663 cebe 2488 093f
00000380: c1af df3f eecd 90bd dd29 2dbd 7b90 393e
00000390: de0f afb9 6c8d 0cbd 532e bf3d 5d73 e2bc
000003a0: 66e7 eb3e 7bab fabc 017b 2e3e b4a5 fe3d
000003b0: 91f9 2ebd f898 353d 41b5 13be 67c9 2b3e
000003c0: db29 e93d e2bb 9c3e ce4b 26bf 0703 4c3e
000003d0: d9a0 943e 3c84 cb3d 50b6 013f 2054 cf3e
000003e0: 6868 24bf acc7 e1ba b02a b53d 010e 683d
000003f0: 838c 0e3e 6ebf 96bd caf6 2f3e eb9b fdbd
-0.7828883 -0.2556141 -0.65999085 -0.08619899 -0.105497226 -0.11292097 0.16363575 0.3721468
0.09470347 0.057827465 -0.051436506 0.17452411 -0.105731614 -0.05084535 0.04609937 -0.090599686
-0.39905828 0.020454079 0.120015204 -0.012293768 0.04644055 0.07413306 -0.06873969 -0.07117883
-0.3449407 -0.40499547 -0.33758914 -0.1987371 0.54542285 0.27215517 0.13272096 -0.5303978
-0.6171024 0.09029413 -0.057125773 -0.15035631 -0.09712286 0.06364292 -0.09161636 -0.16777828
-0.40491298 0.085650764 0.033473227 -0.20286818 -8.015453e-05 0.1862315 0.027765758 -0.18265282
0.15043004 0.16524798 0.78097236 -0.5574409 0.22237687 0.0071381205 -0.5712326 -0.22195096
0.0651929 0.19463088 0.05276771 -0.35013723 -0.098093405 0.010848067 -0.028774383 0.19427605
-0.09200516 0.103261545 0.16029845 0.13451292 -0.19003832 0.16537702 -0.11264839 -0.11883389
0.23301654 0.11425831 -0.5416611 0.009095305 0.49639472 -0.2422953 0.5005881 -0.12130281
-1.0460477 0.04256069 -0.15073219 0.08104888 0.18758166 -0.17342144 -0.0005794292 0.05501404
-0.21965525 0.017693443 0.13267325 0.10985261 -0.15557988 -0.012299584 -0.056844093 0.083138645
-0.33523574 -0.14509222 -0.56311387 -0.32544574 -0.36675057 -0.1840707 0.45264083 -0.26692638
0.21272764 0.1528612 -0.023145007 -0.1397934 0.16120084 -0.07252284 -0.09944958 0.092071205
0.007328224 0.15742244 -0.16499877 0.07497936 0.052230265 -0.043432295 -0.19963478 -0.12796304
0.990703 0.5667925 -0.020341396 -0.06756408 -0.84499234 0.2672162 0.3002214 -0.48131198
0.31911987 -0.050586566 -0.0057756403 -0.112686954 0.14544475 0.07342498 0.01652877 -0.00816637
-0.25224873 0.09527354 0.20377037 0.07471059 -0.11470992 -0.015184807 0.05038238 0.038142413
-0.38726485 -0.16246477 0.6229831 0.087057985 0.38159737 -0.2508412 -0.410195 -0.8094688
0.1238638 0.01367857 0.109108776 0.066801116 -0.027240423 0.19563363 -0.038934443 0.09618965
0.021861356 0.15300795 0.10651883 -0.11160127 -0.058604475 -0.15437165 -0.13735478 -0.12641078
0.17896378 -0.18475004 0.4933784 0.35372922 -0.2508496 0.59989446 -0.76072526 -0.38499382
-0.04860872 0.02324458 0.09502646 0.020788167 0.16636533 -0.14580576 0.03401494 0.01152281
0.18367477 -0.08502101 0.10673041 0.0029056626 -0.040874407 -0.13265887 0.19217758 -0.057047423
-0.42600638 -0.15493159 0.77525234 0.108829215 0.8607893 -0.16384345 -0.30529472 -0.23855723
0.07042124 -0.024123633 0.12990601 -0.04130674 -0.052068472 0.06123972 0.046683837 0.100261815
-0.04176953 0.0038489748 0.045361627 0.08600041 0.18030448 0.022981234 0.17281955 -0.10989868
-0.04462403 0.3287641 0.17663819 -0.19910622 0.18504186 -0.056262884 -0.40310305 0.5372336
1.7475511 -0.07070528 -0.042276252 0.18121521 -0.00033390423 -0.034314558 0.093350075 -0.0276429
0.4607498 -0.030599346 0.1703911 0.12433949 -0.042718474 0.044335335 -0.14424612 0.16776048
0.113849364 0.30612093 -0.6495942 0.1992303 0.29028967 0.09937331 0.5066881 0.4049387
-0.6422181 -0.0017225645 0.088460326 0.05665398 0.13920788 -0.07360731 0.17183986 -0.123832546

critic.v_net.fcs.0.bias f4 [128]
00000000: 09c1 31be d34e 68be 0604 88be 12e2 5bbe
00000010: 6188 55be e80a 07be 439e 033d 7f56 6bbc
00000020: e75f 2a3d 4c6e fc3e 02a9 09be d688 11bd
00000030: b51e 73be 518f b8bc ff0b d6bd fafb 95be
00000040: fc44 d43e 05b4 95bc 833c 97be d266 92be
00000050: 947a c4be ab85 403c b2da 66be 6876 a93e
00000060: 7735 eb3e a37a 6a3d c63f 8f3d 6645 f93e
00000070: 48c7 e5be d410 bfbe e378 1a3e ce9f adbe
00000080: db70 8b3d 7586 87bd c3ff dbbe 2fc0 cebe
00000090: 8e46 d13e c1a3 e4bd d64c df3d 9bc4 cabe
000000a0: 6537 e2bc d25e a33d 84f0 d33d 2311 04be
000000b0: d1e8 91bd 15b2 d13c 93dd e33e 31fb cabe
000000c0: fea9 ab3e 1d05 b9be a04f 01bf 4509 9cbe
000000d0: b6bf 893d 3513 3ebe d592 e5bd bb6f 033e
000000e0: c06c 193e 5bb4 d5be d577 8d3e 4d1c e3bb
000000f0: b6e2 dabe 9836 543e 25ba 2c3e c8b1 cf3e
00000100: 1921 e3bc 7375 44be 6ae4 e5be 27c3 8d3e
00000110: b54d 0bbf 08ad a0be 6bfc 8bbe 8019 0e3e
00000120: 3767 973e fdee 9c3e 5e8a 2bbd 2090 08bf
00000130: 66ec a53d bcd0 863e addb e83e da32 c3be
00000140: a327 7ebe 3114 3abe cad4 4fbe 6a71 8fbe
00000150: aea5 493e 6ba7 ce3e 32f9 393e db64 a4bd
00000160: dbc9 0fbe dfba 823c f884 b7be 2638 edbe
00000170: fa82 a6be 95e4 933d 7bc3 c83e bdb5 d13c
00000180: 93f2 08bf 15ed 7ebe 1099 9fbe d07c cabd
00000190: be0c b0bd 19c0 9cbd 3079 093f 8cd2 9d3e
000001a0: 8557 66be 6246 c0be c91b 07bd 804f 13bd
000001b0: 24d9 e6be 7430 ea3e 5154 d63e 1b29 9ebe
000001c0: e803 013e 281a 3d3e 8fad 1ebe 19fd d1be
000001d0: 70a2 97be c137 fabe dee3 913e dc59 89be
000001e0: 7f1e d33e 1902 01bf 5763 27bd 7ee6 6ebe
000001f0: 260b d33e c8ba 583e 5bed ed3e a32c a63e
-0.17358793 -0.22686319 -0.2656557 -0.21472958 -0.20852806 -0.13187754 0.032133352 -0.014363884
0.041595366 0.493029 -0.13443378 -0.035530888 -0.23742183 -0.022529276 -0.10451507 -0.29293805
0.4145888 -0.018274317 -0.29538354 -0.2859407 -0.3837477 0.011750619 -0.22544363 0.3309815
0.45939228 0.05724586 0.06994586 0.4868576 -0.44878602 -0.37317526 0.15085177 -0.33910984
0.06808635 -0.066174425 -0.42968568 -0.40381 0.4087414 -0.11164046 0.10903327 -0.39603123
-0.027614305 0.0797707 0.10348609 -0.12897162 -0.07124484 0.025597611 0.44504985 -0.3964477
0.3352813 -0.36136714 -0.50512123 -0.30475822 0.06726019 -0.18562014 -0.112096466 0.1283559
0.14982891 -0.41739163 0.27630487 -0.006930864 -0.42751092 0.20723951 0.16867884 0.40565324
-0.027725743 -0.19185428 -0.4490083 0.27687952 -0.54415447 -0.31382012 -0.27341017 0.13876915
0.29570934 0.30651084 -0.041880004 -0.5334492 0.0810173 0.26331127 0.454801 -0.38124734
-0.24819808 -0.18171765 -0.20296016 -0.28016216 0.19692108 0.40362105 0.18161467 -0.08027049
-0.14041846 0.015958248 -0.35843635 -0.463319 -0.32521802 0.07221333 0.3921164 0.025599355
-0.5349514 -0.24895127 -0.31171465 -0.09887087 -0.085961804 -0.07653827 0.5370054 0.30824697
-0.22494324 -0.37553698 -0.032985482 -0.03596449 -0.4508754 0.45740092 0.41861203 -0.30890736
0.12599146 0.18467009 -0.15495895 -0.4101341 -0.29616117 -0.48870662 0.2849416 -0.2682637
0.41234204 -0.50393826 -0.040866222 -0.23330113 0.41219443 0.21165001 0.4647015 0.3245593

critic.v_net.fcs.1.weight f4 [128, 128]
00000000: e24d 553e 3187 f83d 5dac 63be df20 13be
00000010: 9d67 c73e 0e34 a4be 6581 723d babf 113e
00000020: 06bf 5b3e baaa 053f c069 05bf bf53 8fbd
00000030: fd2a 99be 06a6 ecbc 8c7f ea3e c48a 31bf
00000040: e622 963e cd5b 0dbf 9ba4 7e3d 3e59 053e
00000050: 2075 9b3e 5254 573e 7c75 d0bd 63cf fdbc
00000060: 4fed cebe b89e 0dbe dd4e b83e a0ff 373e
00000070: 6977 0c3e 96dc e1be c1de aebe 4a19 273e
00000080: c35a b33e d27b 573e 4c8f a0be 63b6 57bd
00000090: 0343 f5bd 6ea6 f53c da6a 333f a442 853e
000000a0: a8fe 3f3e ab9b 0c3f 2dd1 873e 8304 f63e
000000b0: 79b7 01bf 9b7c b0bc b084 233f acda d5be
000000c0: 25bb 7cbd aa06 2abe 88f9 37be 52cd 46be
000000d0: d5f8 9bbe 05d5 09bf b7d0 683e 9c78 10be
000000e0: 67d3 723d 4cdc b6bd d7f4 5fbd ce2d 04be
000000f0: b136 453d c11b e7bc 9c2e b53d 94de 0fbe
00000100: 1cf6 913e b346 04bf 00fb 1a3e 0d24 06bf
00000110: 139c 8abe 2ef0 b63e 49bb c23e 3c0f d43d
00000120: 4d9a 0b3e 9424 febd 0c41 7d3e ac03 ebbe
00000130: c0dd 3abe 3e66 5cbe 974f eb3d fe7e dc3d
00000140: 0432 023e db39 0ebe 5a0b e5be ff04 fe3d
00000150: 81ad d0bc 64e0 87be c293 cd3e 2097 8bba
00000160: 497c 0f3e 97e8 71be 919f d1be 4e33 b0be
00000170: ff0b 11bf bfb7 b53e 46ca 84be e3d7 ca3e
00000180: bebc 523e a9c4 4d3d 8259 d2bd 5e82 e4bd
00000190: 0903 e6bd 87a2 e4bd 42de 2abf d892 3abe
000001a0: 67b8 9fbe a030 fb3e d6a6 7cbd bb0c 093e
000001b0: fd4b 53bd 7774 bb3d 93cf 76bc 3d3f abbd
000001c0: 5787 20bd 16c0 243f da33 d6bc 59fa 8cbc
000001d0: 9cf2 2b3e e08f bebe 9449 093f 1a05 f0be
000001e0: 7f02 a7be 088c 15bf fda7 3fbe 756a cabd
000001f0: 5728 babe dc60 3d3d 4ca1 813e 1628 33be
00000200: 2cb0 113e 2d85 af3e b462 933e 909c 1ebe
00000210: a7ae 4fbc e60e d63d 3f20 41be e306 b3bd
00000220: 8bf0 7abe 09a4 70bd bc76 4abe acef a63c
00000230: 27f6 603e 8984 5a3d a121 873c 0722 bcbb
00000240: ecaf 673d 1e72 b2be 4cfa 05bf c2ba 093c
00000250: 49ff 6fbe 9ca1 e73e d30d 963e 9f8d 97bd
00000260: cb95 373e 1604 e9bd b141 853e 100f 23bd
00000270: 8288 443e a336 98bd e47f 4ebe 6285 89bd
00000280: 3148 613e 9d02 363d 4bf4 943d 2b0b 87bd
00000290: 6374 843e 749e eb3d 264f ea3d 2971 ba3e
000002a0: 4a7b e73e 71f6 953e 4120 533e 96f9 edbd
000002b0: 787f 84be b1d3 113f 6825 623d d0a0 403d
000002c0: 61ae 4ebe 3529 813c 3f04 1dbf eea6 88be
000002d0: 12f3 163e 8683 c03d be95 4a3e bbff 5e3e
000002e0: f4ea 8abe 9552 ddbe b532 3f3e 5b14 b1be
000002f0: 9da6 813a d708 c8bd 5062 49be 15a4 9a3d
00000300: ee02 843e de1d a6be 0f17 883e 565e 92be
00000310: f367 203e 4ba3 aa3e a58a d63e f12a 5cbd
00000320: c748 843e 5bd5 5cbe a656 39bc 15a0 9e3c
00000330: 8bf5 e43d 9efa 54be 641e 58bd ceb2 f03d
00000340: 706f 8f3c b00b 6dbe bf65 25be 3837 493e
00000350: a9a8 013e 97bb 26be 3b9f 25be 0b41 9a3c
00000360: b7bf 9a3e 7cd6 a23e 07de d9be bfed 103e
00000370: 8e24 9f3e 3964 6ebd 8ba8 63be ce63 0c3f
00000380: 0731 23bf b5cf 033f cac2 573e 19e5 bfbd
00000390: 09d9 87be f319 4ebd 1034 91bd 7add babd
000003a0: 2e89 6b3e 0575 fe3d a0da 5f3d dac6 2cbe
000003b0: b568 15bf 07a2 4e3d 60c2 05bd a75a eabc
000003c0: 409d 113e e800 6b3e 1f4c af3d 7349 dfbe
000003d0: b5d1 e7be 3ba4 d5bc b210 c23c 6b1e 44bd
000003e0: d457 f1bb 5ab1 abbe 293c 0dbf 2784 d0be
000003f0: c75b 1c3e 8674 0abe f65b 42bd db76 44be
0.20830491 0.12135161 -0.2223372 -0.14368008 0.38946238 -0.32070965 0.05920543 0.14233294
0.21459588 0.52213633 -0.52114487 -0.06998395 -0.2991561 -0.02888776 0.45800436 -0.69352365
0.293235 -0.552182 0.0621687 0.13022324 0.30362797 0.2102826 -0.10178658 -0.030982679
-0.40415427 -0.13830078 0.35997668 0.17968607 0.13717426 -0.44113606 -0.34154323 0.16318241
0.35030183 0.21043327 -0.31359327 -0.052664172 -0.11975672 0.029986586 0.7008492 0.26027405
0.18749487 0.5492503 0.26526776 0.48050317 -0.5067058 -0.021543792 0.6387434 -0.41768396
-0.061701912 -0.16604105 -0.17966282 -0.19414261 -0.3046328 -0.53840667 0.22735868 -0.14108509
0.05928364 -0.08928737 -0.054676857 -0.12908098 0.04814786 -0.028211476 0.08846781 -0.1404975
0.2850808 -0.5167038 0.15134811 -0.5239876 -0.270722 0.35730118 0.38033512 0.10354468
0.1363308 -0.124093205 0.24731845 -0.4590124 -0.18248653 -0.21523377 0.1148979 0.10766409
0.12714392 -0.13889258 -0.44735223 0.12403297 -0.025473358 -0.26538384 0.40151793 -0.0010649897
0.14012255 -0.23623882 -0.40942052 -0.34414142 -0.5665893 0.3549175 -0.25935572 0.39617833
0.20579812 0.050236378 -0.102709785 -0.11157678 -0.11231048 -0.11163812 -0.6674539 -0.18220079
-0.31195375 0.49060535 -0.061682545 0.13383763 -0.05158614 0.09153073 -0.015064138 -0.08361671
-0.03919157 0.643556 -0.026147772 -0.017209219 0.16791767 -0.37219143 0.53627896 -0.46878892
-0.32619092 -0.58416796 -0.18716426 -0.09883586 -0.36358902 0.04623495 0.25318372 -0.1749576
0.1422736 0.34281293 0.28786242 -0.15489411 -0.012675918 0.104520604 -0.18859957 -0.08741548
-0.24505822 -0.058750186 -0.19771856 0.020377956 0.219689 0.05334905 0.016495528 -0.005741361
0.056564257 -0.3485269 -0.5233505 0.008406343 -0.23437227 0.45240486 0.29307422 -0.07400059
0.17928235 -0.113777325 0.2602668 -0.039809287 0.19192699 -0.07432296 -0.20165974 -0.06714894
0.22000195 0.044436086 0.07273158 -0.06593927 0.25870046 0.11504832 0.114408776 0.3641446
0.4521125 0.29289582 0.20617773 -0.1161987 -0.258785 0.5696364 0.055211455 0.047028363
-0.20183708 0.01576672 -0.61334604 -0.26689857 0.14741161 0.09400086 0.19783685 0.21777241
-0.2713238 -0.43227068 0.18671687 -0.34585842 0.0009891574 -0.09767311 -0.1966641 0.075508274
0.25783485 -0.32444662 0.26580092 -0.28587598 0.15664653 0.33327708 0.41902652 -0.05375189
0.25836775 -0.21565764 -0.0113121625 0.019363442 0.11179646 -0.20798728 -0.052763358 0.11752854
0.017509192 -0.2314899 -0.16152094 0.1964997 0.12661995 -0.16282497 -0.16174023 0.018829843
0.30224392 0.31804264 -0.42552206 0.14153193 0.31082577 -0.05820105 -0.22232263 0.5483979
-0.63746685 0.5148881 0.210704 -0.09369869 -0.26532772 -0.050317716 -0.07090008 -0.091242746
0.23001549 0.124246635 0.054651856 -0.16872731 -0.58362895 0.05044749 -0.032656074 -0.02860768
0.14220142 0.22949564 0.08559441 -0.43610725 -0.4527718 -0.026079288 0.023689602 -0.04788057
-0.0073652063 -0.33533746 -0.5516992 -0.40725824 0.15269385 -0.13521013 -0.047450982 -0.19185965

critic.v_net.fcs.1.bias f4 [128]
00000000: 39b5 fbbd de68 d93e d042 e3bd 7cfb e1bc
00000010: 26a5 82be a2ba e7bc 5042 05be c77a 8bbe
00000020: bee4 a1bd 9274 6b3e a3c9 c93c d162 843c
00000030: 417a 69bd a236 9c3d af58 b1bd 68fc 02bd
00000040: 4bbc 363d 7b2a a6be 25f3 463c 3ea0 e9bd
00000050: b0e5 5e3e e0a5 ecbd c9f7 eabd 0d7c 3dbe
00000060: 44c7 1cbe 028b 773e bb1f 04bf 307c adbe
00000070: e891 f63c cf7a 42be 4c13 5bbd 781c 683d
00000080: a016 333b b3bc bc3e a1cd 5cbd 1b33 b33c
00000090: 0ee2 483e c9b6 a8bd fb64 d93d 4f9b 3fbe
000000a0: 86fe ca3e 2e7a 7f3d b775 89bd eb02 073e
000000b0: bc3e 61be bc94 9d3e 65ff 183e cb38 31be
000000c0: 59cd 633e a09f 11be d0a7 dbbd 959a b8be
000000d0: ed8e b6bd 41fe b83c d64f 053d a9c6 753d
000000e0: d064 ba3c ffc0 bfbe e95b d0be 18ba e53d
000000f0: 5c91 4d3e 4d31 c53e 9da6 76be 79cb 2b3c
00000100: 00e8 05be aed0 a93d c7cd 873e ca70 2fbc
00000110: ca0c b03c f3d0 2d3e 429a 643e 452a 503d
00000120: 56ee 45bd 1aef d0bc a269 e9be 6732 10be
00000130: 8cdb e43d b294 9ebe 7aaf 713e db84 31be
00000140: 063b 033e aebd 89bd d39a b9be 826d dc3a
00000150: bb23 c7be 232b 55be fcf3 963d 1e16 32be
00000160: 1868 35be a51c db3d e1fd e4bd 1be7 a8bd
00000170: be69 5e3e ad5c 603d 582b ba3d 64a7 083c
00000180: 0455 423e f638 fdbe 1f11 853e 2378 673e
00000190: edc9 42be e1ff 09be 642f 873e 5a93 193d
000001a0: 12c5 563c 3c7c dabd c1de 833e 4207 57bd
000001b0: 5b4f 063e a092 ea3e 99ba 20bd efdf 0bbe
000001c0: 37a1 bb3e d6fe 923d f4d8 283e 3a65 95be
000001d0: c5e5 543e 3d74 3a3e 62bf 4bbc 6cb6 21bf
000001e0: 3529 78be 1d08 843d 99fd cf3e f602 91be
000001f0: 0c3c a23c 8dd9 9f3e 78f1 dfbc d584 edbc
-0.12290425 0.4246282 -0.11096728 -0.027585737 -0.25516623 -0.028287236 -0.13013577 -0.2724211
-0.07904957 0.22993687 0.02463228 0.0161604 -0.057001356 0.07627608 -0.08659493 -0.031978995
0.044613164 -0.32454285 0.012142931 -0.11407517 0.21767306 -0.11555076 -0.114730425 -0.18504353
-0.15310389 0.24174121 -0.51610917 -0.3388381 0.03009887 -0.1899216 -0.0534852 0.056667775
0.0027326718 0.36862716 -0.05390704 0.021874955 0.19617483 -0.082379885 0.106149636 -0.1871159
0.3964731 0.06237238 -0.067119054 0.13184707 -0.21996588 0.30777538 0.14941175 -0.17306821
0.22246303 -0.14221048 -0.10725367 -0.36055437 -0.0891398 0.022582175 0.03254684 0.06000391
0.02275315 -0.37451932 -0.40695122 0.11217135 0.20074981 0.38514176 -0.24086995 0.010485523
-0.13076782 0.082917556 0.26524183 -0.010708043 0.021490473 0.16974239 0.2232447 0.05082156
-0.048322998 -0.025504638 -0.45588404 -0.14081727 0.11174688 -0.3097282 0.23602095 -0.17335837
0.12815484 -0.06725632 -0.36250934 0.0016817304 -0.38894448 -0.20817237 0.07370755 -0.1739125
-0.1771549 0.10698823 -0.11181236 -0.08247205 0.21720025 0.054775883 0.090902984 0.00834069
0.18977743 -0.4945752 0.25989625 0.22604422 -0.19022341 -0.13476516 0.26403344 0.03749404
0.013108509 -0.10668227 0.25755885 -0.052497156 0.13116209 0.4581499 -0.039240453 -0.13659643
0.36646435 0.07177512 0.16489011 -0.29178792 0.20790775 0.18208404 -0.012435766 -0.6316898
-0.24234469 0.0644686 0.40623167 -0.28322572 0.019804023 0.31220666 -0.027336821 -0.028994003

critic.v_net.fcs.2.weight f4 [1, 128]
00000000: 491f 983f d1e8 8dbe a6da ad3f fd30 72bf
00000010: 5e77 163f dfeb 94bf eecf 843f f198 c03f
00000020: 134f 95bf c1f2 2abf 54e1 7dbf e6d9 9fbf
00000030: 3a3d 943f e083 953f d4f8 8b3f a2e5 88bf
00000040: fe6b b23f 7d3a aa3f ac23 833f d223 89bf
00000050: fce4 8fbf 9755 6a3f 6ca5 4cbf 4cd3 353f
00000060: 01bd 6e3f 99df 37bf 58b0 0d3f 2c34 303f
00000070: 33de 81bf 28a0 9b3f 8c6a 3b3f efea 723f
00000080: 0f90 b83f 6675 0abf f416 b1bf a097 b4bf
00000090: d1e1 9bbf 59a1 9b3f 96b1 603f dd93 823f
000000a0: e1d1 08bf fe51 9bbf 91e5 893f bcdc 90bf
000000b0: f38a 1c3f 6f0c 12bf 6840 6ebf 634e 9c3f
000000c0: df90 67bf 00d1 4b3f 12dc 233f 34ff 7a3f
000000d0: 51f4 8cbf b0dd 4b3f 1d47 64bf be5e 72bf
000000e0: 9bb9 403f 1e52 4b3f 8e1b 423f fa2c 80bf
000000f0: e6b4 99bf c161 c6be 59f6 413f 78e9 583f
00000100: 0586 8b3f 8d9e 663f ed96 f1be 2d1b 813f
00000110: 36c6 8dbf fd12 87bf 94d8 82bf 0cb2 6b3f
00000120: a2c5 9dbf 7402 9c3f 78e5 f23e 5af7 013f
00000130: 787e 43bf 99eb 713f 0463 acbf 6ec6 833f
00000140: 634e 98bf 2307 783f 8312 563f f679 91bf
00000150: ae30 223f b5df 3a3f 651f 61bf 8912 663f
00000160: aa59 d4bf 723e 63bf b37f 2d3f 19f8 733f
00000170: 69bc 4ebf 8a17 833f a272 90bf c525 843f
00000180: ad54 0ebf 6636 083f cc1a 7f3f 6a93 88bf
00000190: 543c d23f bacc 813f 916f 66bf a36f 78bf
000001a0: 9935 87bf 5a89 743f 7f79 b7bf da6d 693f
000001b0: 9361 80bf 3c73 d3bf 5c40 84bf 05e7 953f
000001c0: 4a4c ffbe b666 9fbf ab83 00bf 394f 423f
000001d0: ac5a 6bbf df64 93bf 2ac5 8abf d78a 3a3f
000001e0: 869e 353f 821e b3bf 2fbf 66bf d2b7 a53f
000001f0: acb4 773f 308c 7fbf 3513 793f 4196 56bf
1.1884547 -0.27716687 1.3582351 -0.94606 0.5877589 -1.1634482 1.0375955 1.5046674
-1.1664757 -0.66776663 -0.9917195 -1.2488372 1.1581185 1.168087 1.0935311 -1.0695078
1.3939207 1.3299099 1.0245261 -1.0714056 -1.1241755 0.9153685 -0.79939914 0.7102554
0.9325715 -0.7182556 0.55347204 0.6882961 -1.0145935 1.2158251 0.7320945 0.9488973
1.4418963 -0.54085386 -1.383513 -1.4108772 -1.2178289 1.2158614 0.87770975 1.0201374
-0.5344525 -1.2134397 1.0773183 -1.1317363 0.6114952 -0.5705022 -0.93067026 1.2211422
-0.9045543 0.79615784 0.64007676 0.9804566 -1.101206 0.79635143 -0.8917101 -0.94675815
0.7528321 0.79422176 0.75823295 -1.0013726 -1.2008331 -0.38746455 0.7576652 0.84731245
1.0900275 0.9008568 -0.4718546 1.0086418 -1.1076114 -1.055267 -1.0222344 0.9206855
-1.2325938 1.2188249 0.47440696 0.50768054 -0.7636485 0.9450012 -1.3467717 1.0294931
-1.1898922 0.9688589 0.83621997 -1.1365345 0.6335553 0.729976 -0.8793853 0.8987203
-1.6589863 -0.8876716 0.6777298 0.9530044 -0.8075624 1.0241559 -1.1284983 1.0324026
-0.55597955 0.53208005 0.99650264 -1.0669987 1.6424661 1.0140603 -0.90013987 -0.97045344
-1.0563232 0.9552208 -1.4333953 0.91183245 -1.0029777 -1.6519542 -1.0332141 1.1711127
-0.4986289 -1.245322 -0.5020091 0.75902134 -0.9193523 -1.1515158 -1.084142 0.728681
0.7094501 -1.3993685 -0.90135473 1.2946723 0.9676006 -0.99823284 0.9729493 -0.8382302

exp_avg f4 [4]
00000000: 98c9 fe3a bf7d 41bc a5b5 5e3c 3782 8dbb
0.0019438742 -0.011809765 0.013593112 -0.0043185013

exp_avg_sq f4 [4]
00000000: 171c ae3b bc06 bf3b db66 b13b 5a0a a33b
0.005313407 0.00582966 0.0054138727 0.0049755992
